cnmp_best_model.pth (torch, 277426 bytes, 12 tensors)

encoder.0.weight f4 [128, 6]
0.12842932 -0.2804688 0.49603224 0.13472661 0.43872133 0.4585378 -0.253955 0.31464052
-2.6338265 -0.06173505 -0.16262253 0.18619354 0.22310968 -0.3107669 0.1806967 0.1432653
0.1805339 0.1170172 0.050982293 -0.06975117 -0.17055993 -0.08284451 0.05516537 0.65811545
0.2506368 -0.39479458 -0.0920833 0.31627816 -0.30874157 -0.06966036 -0.42193383 -0.14159334
-0.70313156 0.111325555 0.43956703 -0.14644559 -0.3877522 0.25262937 -0.36273557 0.18387012
0.20965019 0.20653185 -0.40547094 -0.2703804 0.03828749 -0.20783657 0.13806732 -0.09006236
-0.300162 0.0012071625 -0.24805117 0.18445241 0.44617426 -0.23595974 -0.2479423 -0.36972833
0.35630947 -0.3301172 0.2968712 0.40743455 -0.08042929 0.1962638 -0.3549273 0.19697012
-0.37317166 -0.17071052 -0.2264 0.20891821 -0.7684501 0.014245774 0.31246707 -0.51720136
0.1444747 0.09569466 -0.24076775 -0.3131349 0.10884555 0.2576179 0.24097377 -0.40201578
0.21076213 -0.37644482 0.34125122 -0.3081018 0.38576305 -0.18426108 -0.09761887 0.24057789
0.049866684 -0.14544137 -0.3405812 0.058141198 -0.44159412 0.18104127 0.37257963 -0.1764332
0.22939378 0.19756596 0.36881098 0.22961521 0.30610853 0.010236261 -0.09491226 -0.24292211
0.017959239 -0.18640421 0.12324404 0.3681502 -0.01759852 0.08670029 -0.1710976 -0.37407202
0.2732174 0.30560485 -0.034509156 0.17660804 -0.058130853 -0.39060098 -0.59561074 0.4765891
0.22258955 -0.074170455 0.4329898 -0.10499981 0.024222406 0.043967728 -0.22702765 0.0751216
-0.43963757 0.2663369 -0.29394302 0.40571296 0.354379 0.1550738 0.041421693 -0.39386046
-0.050944995 -0.3261792 -0.20268215 0.26386335 -0.95931447 -0.058048952 -0.35336545 0.015496591
0.33946052 0.24635567 0.9984908 -0.11768418 0.44182324 -0.14320244 -0.06116472 -0.16650656
-0.36925772 -0.11214622 -0.06957599 0.285178 0.2720903 -0.18865988 -0.32728094 -0.13544081
0.05405423 -0.07542352 -0.00057665515 -0.098699525 -0.26621738 0.3709965 0.29917696 -0.3242189
-0.08428766 -0.14650856 0.23383617 0.066036284 0.056497924 0.70697784 -0.17135262 -0.061182536
-0.34824005 -0.15750079 -0.19274971 -0.14713627 -0.27489862 -0.008495359 0.10179485 -0.35261926
-0.36115497 -0.25465834 0.41357243 0.04745075 0.8228578 -0.0639323 0.5098974 -0.32135335
0.008623499 0.15923177 0.08970385 -0.2890922 -0.42281196 0.36009258 0.11305843 0.16626884
0.16291721 0.19213803 0.1626915 -0.34181386 -0.023538958 -0.1437309 -0.20186076 -0.29544124
0.09810511 -0.3225848 0.15698716 0.35835874 0.071421824 -0.20626517 -0.23744518 -0.22083329
-0.23752691 -0.012561769 -1.8208005 0.15982519 -0.11826053 -0.46803442 0.0503552 -0.2816681
-0.040635623 -0.18082692 -0.17355807 -0.19939241 -0.043680143 -0.15574121 0.17981288 -0.042303648
0.07116201 -2.115722 -0.29932702 0.08988467 -0.17102125 -0.13227434 0.39312616 -0.32100922
-0.21529733 0.13176107 -0.025223969 0.02742403 -0.12615852 -0.4474827 0.2022318 -0.2718039
0.6432209 0.20540912 0.17455764 0.5382183 -0.4575148 0.22708805 -0.57605463 -0.10816304
00000000: fa82 033e 9b99 8fbe f0f7 fd3e c6f5 093e
00000010: 15a0 e03e 77c5 ea3e 6406 82be 9018 a13e
00000020: 9d90 28c0 e4dd 7cbd 8586 26be 85a9 3e3e
00000030: dd76 643e d71c 9fbe 8e08 393e 24b4 123e
00000040: e1dd 383e b7a6 ef3d cfd2 503d b4d9 8ebd
00000050: 43a7 2ebe 62aa a9bd 15f5 613d 417a 283f
00000060: 7753 803e 8422 cabe 2b96 bcbd 36ef a13e
00000070: 6013 9ebe 17aa 8ebd b607 d8be d8fd 10be
00000080: 6e00 34bf a7fe e33d ee0e e13e d5f5 15be
00000090: 7587 c6be a358 813e 7ab8 b9be 7348 3c3e
000000a0: 8aae 563e 167d 533e e399 cfbe 4d6f 8abe
000000b0: 58d3 1c3d 1cd3 54be 8561 0d3e 9d72 b8bd
000000c0: d5ae 99be a739 9e3a 2001 7ebe 18e1 3c3e
000000d0: f470 e43e 6e9f 71be 96e4 7dbe 084d bdbe
000000e0: 326e b63e 1f05 a9be 80ff 973e 439b d03e
000000f0: 1db8 a4bd 61f9 483e 08b9 b5be 89b2 493e
00000100: 5b10 bfbe bdce 2ebe 67d5 67be a8ee 553e
00000110: 25b9 44bf 1b67 693c affb 9f3e 4f67 04bf
00000120: 2df1 133e 90fb c33d d28b 76be 3853 a0be
00000130: 6aea de3d 7ee6 833e d4c1 763e 03d5 cdbe
00000140: 07d2 573e 60bd c0be 7bb8 ae3e 85bf 9dbe
00000150: bc82 c53e f0ae 3cbe 67ec c7bd 0d5a 763e
00000160: 0241 4c3d 95ee 14be a960 aebe 7725 6e3d
00000170: a018 e2be e262 393e c2c2 be3e e8aa 34be
00000180: 34e6 6a3e bb4e 4a3e cbd4 bc3e 4020 6b3e
00000190: 42ba 9c3e feb5 273c 5c61 c2bd 93c0 78be
000001a0: 411f 933c bfe0 3ebe 5f67 fc3d 2f7e bc3e
000001b0: c52a 90bc ec8f b13d 3634 2fbe 5e86 bfbe
000001c0: 27e3 8b3e 3d78 9c3e 7959 0dbd bdd8 343e
000001d0: 9e1a 6ebd dafc c7be f279 18bf 7d03 f43e
000001e0: 84ee 633e aee6 97bd d7b0 dd3e 240a d7bd
000001f0: 116e c63c 8117 343d f079 68be 5ad9 993d
00000200: 2d18 e1be 4f5d 883e b37f 96be 9cb9 cf3e
00000210: 2a71 b53e abcb 1e3e cba9 293d 14a8 c9be
00000220: b3ab 50bd f600 a7be e98b 4fbe 1919 873e
00000230: a295 75bf bdc4 6dbd 51ec b4be 6ae5 7d3c
00000240: c5cd ad3e a944 7c3e 189d 7f3f 6704 f1bd
00000250: a836 e23e a9a3 12be dc87 7abd b280 2abe
00000260: 590f bdbe ebac e5bd db7d 8ebd da02 923e
00000270: 6b4f 8b3e 0e30 41be 5e91 a7be ffb0 0abe
00000280: f867 5d3d a577 9abd ac2a 17ba fa22 cabd
00000290: a54d 88be 41f3 bd3e b92d 993e 0500 a6be
000002a0: 029f acbd 5706 16be c072 6f3e 083e 873d
000002b0: 5e6a 673d 80fc 343f 1077 2fbe 8a9a 7abd
000002c0: 854c b2be e347 21be 2e60 45be e4aa 16be
000002d0: 83bf 8cbe 1e30 0bbc d179 d03d 838a b4be
000002e0: 4ee9 b8be 9462 82be c4bf d33e b85b 423d
000002f0: cfa6 523f f0ee 82bd a388 023f 6d88 a4be
00000300: 9449 0d3c a70d 233e a7b6 b73d e503 94be
00000310: cf7a d8be 0e5e b83e 2e8b e73d 6142 2a3e
00000320: c5d3 263e d5bf 443e 9a98 263e 3a02 afbe
00000330: c6d4 c0bc 312e 13be 96b4 4ebe 1344 97be
00000340: 55eb c83d d629 a5be 3ec1 203e cc7a b73e
00000350: 9b45 923d 2d37 53be d424 73be 1f22 62be
00000360: 413a 73be e1cf 4dbc fe0f e9bf 37a9 233e
00000370: 9432 f2bd 35a2 efbe 4141 4e3d cd36 90be
00000380: 8a71 26bd b12a 39be 35b9 31be 862d 4cbe
00000390: f3e9 32bd a07a 1fbe de20 383e 9746 2dbd
000003a0: 63bd 913d fd67 07c0 6441 99be 7415 b83d
000003b0: 3220 2fbe ed72 07be d547 c93e 525b a4be
000003c0: e776 5cbe 60ec 063e 7fa2 cebc 5ca8 e03c
000003d0: b32f 01be 741c e5be da15 4f3e e129 8bbe
000003e0: 20aa 243f c556 523e 3dbf 323e adc8 093f
000003f0: 613f eabe c589 683e 5178 13bf 9584 ddbd

encoder.0.bias f4 [128]
0.11066297 -0.13220693 -0.014201271 0.11808985 -0.034485884 0.24837823 -0.39806694 0.38191882
0.08978787 0.077264056 0.3362132 0.19059117 0.16362444 -0.0591356 0.22293828 -0.05519863
-0.49731106 0.18999709 -0.24689898 0.2578299 0.3121113 -0.24940284 -0.16962092 0.1003119
-0.24570087 0.06670098 -0.1766896 -0.3353269 0.09304304 0.10873612 0.0054393634 -0.031105794
0.17857964 0.2344202 -0.15641643 -0.2960583 -0.0093313595 0.24599805 0.258479 -0.030571435
0.043596298 -0.019292599 0.22235301 -0.13533589 0.34010363 0.079528295 0.12713861 -0.3474229
0.19346455 -0.0030698164 -0.39858454 -0.31240523 0.37187678 0.2649907 0.05219991 0.09581051
0.014076875 -0.057605166 -0.021994706 -0.36350825 0.20228235 -0.27301604 -0.22712213 -0.34043384
0.13602151 0.037519023 -0.22188161 -0.06499437 -0.2181574 -0.02240114 -0.04523433 -0.40712118
-0.21645209 -0.18793458 0.10050749 -0.05337236 -0.13572362 -0.06553438 -0.32034272 0.12256849
0.24919567 0.068435185 0.18276525 0.32714528 -0.09543753 0.22157335 0.25660363 -0.04822451
-0.38088515 0.074616276 -0.0830764 -0.23956355 -0.23666655 0.18878332 0.12825537 -0.30878258
-0.025032597 0.11299798 0.015218047 0.07537021 -0.3638828 0.21043411 0.1350317 0.32252023
0.26013887 0.21374299 -0.022668889 -0.3789237 -0.19384463 0.018945573 0.2151464 -0.17471084
-0.18375741 -0.22939673 -0.124175645 0.20093033 0.3388329 -0.06585004 -0.15676546 0.023672402
-0.0907798 0.05914571 -0.35123065 -0.11820024 0.106029786 -0.2060261 0.2370518 -0.33487946
00000000: 44a3 e23d 4161 07be 73ac 68bc 17d9 f13d
00000010: 1241 0dbd dd56 7e3e 6ecf cbbe dd8a c33e
00000020: b4e2 b73d 9e3c 9e3d 2324 ac3e 552a 433e
00000030: 2a8d 273e 2c38 72bd ef49 643e f517 62bd
00000040: 8e9f febe 998e 423e 16d3 7cbe 4802 843e
00000050: 0dcd 9f3e 7563 7fbe 1bb1 2dbe 5370 cd3d
00000060: 0299 7bbe 869a 883d 1eee 34be f8af abbe
00000070: 598d be3d 0bb1 de3d b03c b23b 94d1 febc
00000080: 95dd 363e d90b 703e a12b 20be f494 97be
00000090: 8fe2 18bc eae6 7b3e 5c57 843e f270 fabc
000000a0: 0892 323d 830b 9ebc 82b0 633e 7e95 0abe
000000b0: 1022 ae3e bbdf a23d a030 023e 6ae1 b1be
000000c0: 921b 463e f92e 49bb 4613 ccbe 94f3 9fbe
000000d0: a266 be3e dcac 873e 93cf 553d 4d38 c43d
000000e0: b1a2 663c 65f3 6bbd 3e2e b4bc c11d babe
000000f0: 1b23 4f3e c2c8 8bbe b492 68be 584d aebe
00000100: 3949 0b3e 8cad 193d ef34 63be c51b 85bd
00000110: a764 5fbe 9882 b7bc a247 39bd 3072 d0be
00000120: 9ea5 5dbe ec71 40be dfd6 cd3d fa9c 5abd
00000130: 22fb 0abe e436 86bd f603 a4be 3005 fb3d
00000140: 262d 7f3e bf27 8c3d d026 3b3e 967f a73e
00000150: c074 c3bd 20e4 623e 8d61 833e 1087 45bd
00000160: 6103 c3be 6bd0 983d f623 aabd 2650 75be
00000170: b758 72be 6a50 413e 6055 033e c018 9ebe
00000180: 2911 cdbc 7c6b e73d 1e55 793c b25b 9a3d
00000190: d94e babe 0a7c 573e c045 0a3e 5f21 a53e
000001a0: ec30 853e 71df 5a3e 1bb4 b9bc 4a02 c2be
000001b0: 357f 46be bf33 9b3c 564f 5c3e 66e7 32be
000001c0: e72a 3cbe fae6 6abe cd4f febd aec0 4d3e
000001d0: 827b ad3e 63dc 86bd 2087 20be a0ec c13c
000001e0: c3ea b9bd c642 723d 81d4 b3be f812 f2bd
000001f0: 2526 d93d 82f8 52be b5bd 723e 5275 abbe

encoder.2.weight f4 [128, 128]
-0.13183329 0.28639203 0.080883354 -0.123900875 -0.0029979919 0.068159476 0.058544762 -0.026512632
0.020197127 -0.062685914 -0.04795844 0.07712155 -0.10286063 -0.03870792 -0.071179524 0.066842765
-0.06949373 0.018237079 -0.017901516 -0.014044648 0.04111227 0.06467837 0.00530141 0.02796759
0.07152632 -0.08289722 0.06976319 0.0714731 -0.20534438 -0.0034368963 -0.02932486 0.032300677
0.019792449 0.033429094 0.08528813 -0.019136313 0.24305749 -0.0021261398 0.16477722 0.01228117
0.022959167 -0.092951484 0.1132733 -0.034393735 -0.039285403 -0.08916241 -0.14608894 0.03586112
0.014337634 0.059003342 0.021042129 0.017574435 -0.037581176 -0.030462582 -0.016017808 0.056003615
-0.03872537 0.017862178 0.013353154 0.05249151 0.08040213 -0.17625366 0.07497883 -0.003979358
-0.035827298 -0.01695885 0.0042663882 0.12795755 0.06172316 -0.030208346 0.056248963 -0.08131268
-0.01924582 0.11183248 0.046011385 -0.07250264 -0.035060856 0.06129861 0.03257591 -0.08107708
-0.038872816 0.080102496 -0.07125201 0.011425652 -0.07483441 0.40315422 -0.12543431 0.023206824
0.037677754 -0.004147097 -0.06277901 0.08416655 -0.07787836 0.008639254 0.06004743 0.08509087
-0.06493391 0.00325133 -0.09569071 -0.099244915 -0.030222083 -0.006770081 0.031495705 -0.09032625
-0.5578051 0.08192059 -0.07140342 -0.08343317 -0.030093126 -0.02009568 -0.026760362 0.031220878
0.08838546 0.023525001 -0.096154116 -0.014607469 0.050882436 -0.0012587683 -0.048504915 -0.020346107
0.07929866 0.067170836 -0.0073647927 0.020042164 0.04896272 0.02549918 0.03302469 0.012101572
-0.005839528 0.36673295 -0.037553843 0.09595802 -0.06186759 0.16423142 0.06534278 -0.024925256
0.028353589 -0.020227885 0.019369908 -0.010397434 -0.10996806 -0.045749255 -0.01636008 -0.010926207
-0.03807998 0.03744989 0.010865089 -0.038018778 -0.007752997 0.08430838 0.06041559 -0.02239608
0.008459465 -0.05046458 -0.010828147 -0.041693855 -0.17240135 0.08244898 0.026746085 0.013692489
-0.05372872 0.0021858634 0.008267557 0.07711881 0.16449592 -0.04892192 -0.103664756 -0.035976414
0.006899961 0.004415962 0.10292019 -0.041591343 0.0023210037 -0.024559122 -0.16850951 -0.0061333566
-0.085086755 -0.07888274 0.034362283 0.06318854 -0.083375715 0.047741473 -0.09441723 -0.052796293
-0.054087084 -0.09048 -0.06440224 0.10404768 -0.044811897 -0.17161074 -0.07403666 0.066972256
0.06444452 0.077907965 -0.017061835 -0.04488871 -0.050519817 -0.044096 -0.013591781 -0.029190622
0.019612351 0.025356604 0.24744076 -0.11457212 -0.009906659 -0.069915034 -0.06579753 -0.5469946
-0.07705505 -0.032329403 -0.061683767 -0.06328161 0.026948305 0.22354883 0.010141479 0.025195228
0.07132963 -0.020377638 -0.025526606 0.0062024673 -0.023860257 -0.041214157 0.08215873 -0.048186366
-0.05909478 -0.03032893 -0.05812169 0.034552664 -0.008104101 -0.027950516 0.07360897 -0.000725899
-0.23929961 -0.0003104642 -0.010499601 0.072038814 0.053560406 0.043672998 -0.011271479 0.019472644
-0.013030962 -0.0034237676 -0.061860498 -0.07922537 -0.0008418517 0.08684648 -0.09704496 0.038624056
0.0154277375 -0.04353111 0.013150923 0.005266607 -0.05180481 -0.08114705 -0.08018558 -0.063127644
00000000: 4eff 06be faa1 923e 2ca6 a53d bebf fdbd
00000010: f579 44bb 3297 8b3d a2cc 6f3d 0531 d9bc
00000020: 7274 a53c 7961 80bd 1270 44bd e7f1 9d3d
00000030: 98a8 d2bd 328c 1ebd 92c6 91bd dce4 883d
00000040: bb52 8ebd ed65 953c 33a6 92bc 861b 66bc
00000050: 5765 283d 1876 843d 73b7 ad3b 4a1c e53c
00000060: 647c 923d 05c6 a9bd 01e0 8e3d 7d60 923d
00000070: cc45 52be 8d3d 61bb b03a f0bc b74d 043d
00000080: c623 a23c f2ec 083d 8bab ae3d c2c3 9cbc
00000090: 10e4 783e b556 0bbb 5cbb 283e f636 493c
000000a0: dd14 bc3c 595d bebd d5fb e73d 72e0 0cbd
000000b0: bbe9 20bd c89a b6bd 5798 15be 1ce3 123d
000000c0: 65e8 6a3c 7dad 713d 8b60 ac3c 43f8 8f3c
000000d0: b8ee 19bd aa8c f9bc c737 83bc 0c64 653d
000000e0: 7e9e 1ebd b453 923c 30c7 5a3c 5601 573d
000000f0: dfa9 a43d d77b 34be 808e 993d 4665 82bb
00000100: a5bf 12bd 49ed 8abc 0fcd 8b3b 4e07 033e
00000110: 6dd1 7c3d 7e77 f7bc 5065 663d 4387 a6bd
00000120: 69a9 9dbc 6d08 e53d 6f76 3c3d 447c 94bd
00000130: f99b 0fbd 4014 7b3d 516e 053d bd0b a6bd
00000140: 1a39 1fbd c70c a43d 93ec 91bd a832 3b3c
00000150: c842 99bd 3b6a ce3e da71 00be 3d1c be3c
00000160: fd53 1a3d 5fe4 87bb 4892 80bd 835f ac3d
00000170: b17e 9fbd a88b 0d3c 4bf4 753d 1f44 ae3d
00000180: 12fc 84bd 4414 553b 7ef9 c3bd eb40 cbbd
00000190: 4d94 f7bc 8ed7 ddbb a401 013d f8fc b8bd
000001a0: 51cc 0ebf fbc5 a73d f53b 92bd 03df aabd
000001b0: dc85 f6bc b29f a4bc 8c38 dbbc edc2 ff3c
000001c0: 7003 b53d 81b7 c03c 73ec c4bd 2a54 6fbc
000001d0: 1a6a 503d 41fd a4ba 17ad 46bd e1ac a6bc
000001e0: 5667 a23d dd90 893d 5c54 f1bb 772f a43c
000001f0: 228d 483d a8e3 d03c e644 073d ac45 463c
00000200: 8359 bfbb 6cc4 bb3e 0fd2 19bd a385 c43d
00000210: df68 7dbd 482c 283e 6fd2 853d 0d30 ccbc
00000220: c945 e83c f3b4 a5bc a4ad 9e3c 005a 2abc
00000230: ef36 e1bd 9263 3bbd 9305 86bc d503 33bc
00000240: c1f9 1bbd 0e65 193d 7c03 323c 94b9 1bbd
00000250: da0c febb dfa9 ac3d 5676 773d fc77 b7bc
00000260: 9199 0a3c f3b3 4ebd 8a68 31bc 2dc7 2abd
00000270: fb89 30be 03db a83d 9b1a db3c 7656 603c
00000280: a512 5cbd b440 0f3b a674 073c 77f0 9d3d
00000290: 9e71 283e 5a62 48bd 304e d4bd 015c 13bd
000002a0: 1119 e23b c6b3 903b d2c7 d23d af5b 2abd
000002b0: fb1b 183b 3630 c9bc c28d 2cbe 53fa c8bb
000002c0: f741 aebd 468d a1bd 77bf 0c3d fe68 813d
000002d0: e3c0 aabd 908c 433d d25d c1bd ed40 58bd
000002e0: 6b8a 5dbd 944d b9bd 52e5 83bd f316 d53d
000002f0: ae8c 37bd baba 2fbe 88a0 97bd c028 893d
00000300: 7dfb 833d 368e 9f3d 43c5 8bbc 39dd 37bd
00000310: deed 4ebd 029e 34bd 10b0 5ebc 2c21 efbc
00000320: 15aa a03c a7b8 cf3c 1c61 7d3e caa4 eabd
00000330: 8a4f 22bc 9d2f 8fbd dbc0 86bd d707 0cbf
00000340: 0acf 9dbd d66b 04bd 1ea8 7cbd ca99 81bd
00000350: b1c2 dc3c fce9 643e 7228 263c 3966 ce3c
00000360: 4515 923d 01ef a6bc 2c1d d1bc 113e cb3b
00000370: 9676 c3bc 2dd0 28bd d642 a83d 115f 45bd
00000380: 5e0d 72bd 6074 f8bc 0211 6ebd 1887 0d3d
00000390: 10c7 04bc 7bf8 e4bc 4dc0 963d 424a 3eba
000003a0: f50a 75be cdc5 a2b9 8506 2cbc 1689 933d
000003b0: 2862 5b3d 75e2 323d 02ac 38bc 1885 9f3c
000003c0: d17f 55bc 4a61 60bb 6f61 7dbd e940 a2bd
000003d0: b6af 5cba 91dc b13d 82bf c6bd 4234 1e3d
000003e0: 9fc4 7c3c ad4d 32bd f876 573c 8093 ac3b
000003f0: 4831 54bd 6d30 a6bd 5638 a4bd 1149 81bd

encoder.2.bias f4 [128]
-0.0568164 0.062390044 0.059994005 0.07032387 0.043112453 0.02357726 -0.024205294 0.0653187
0.025415858 0.021254187 0.071074046 0.008392527 -0.0019361208 -0.0016395395 -0.075582564 -0.013278171
-0.0013971785 -0.058893636 -0.016199214 -0.08636047 -0.057132773 0.06948925 -0.03069217 -0.020442843
-0.074609585 -0.02159026 -0.05923481 -0.06755814 -0.039276298 0.028790016 -0.07716673 -0.0144744115
0.046827972 0.0034156966 0.03560843 -0.04511351 -0.02494198 -0.06784825 -0.00839004 0.035755355
-0.033718195 -0.0861155 -0.09688609 0.0042958735 0.030900974 0.053145994 0.0018182256 -0.024450872
-0.031867456 -0.050862715 -0.07747622 0.005672004 -0.036392212 -0.035103012 -0.026766684 -0.059565466
-0.010974536 0.02986016 -0.03255675 -0.031038735 -0.030750383 0.0068359426 0.033719808 0.03993133
-0.047612306 -0.01813113 0.03676984 -0.08018546 -0.02890728 0.008349585 0.011489443 0.028935011
-0.01173522 0.0125970505 -0.051642932 -0.081288256 0.015509321 0.011089587 -0.06342756 0.03805221
0.0074806274 0.0052559753 -0.07521122 -0.025151579 0.08300893 -0.030624848 -0.09403657 0.041326195
-0.04811548 0.024369001 -0.07997609 -0.054927815 -0.0847165 -0.010597508 -0.033059187 -0.075389296
-0.0038031826 -0.06953454 -0.094197616 -0.075349584 -0.0425992 0.04029784 -0.032401253 -0.021837357
-0.060224887 0.01655046 -0.016673712 0.058743592 -0.059476767 -0.04753994 -0.036532026 -0.064173445
-0.017214444 0.07628298 0.007839791 -0.08479131 -0.0010291628 0.085185 0.06997969 0.05793012
0.07379603 0.075584546 -0.027701795 -0.037911955 -0.07063057 0.0109437825 0.040566687 -0.07467758
00000000: 50b8 68bd b48c 7f3d 46bc 753d f605 903d
00000010: af96 303d 1925 c13c 2e4a c6bc d0c5 853d
00000020: eb34 d03c 431d ae3c 458f 913d cf80 093c
00000030: 6fc5 fdba d1e5 d6ba 08cb 9abd b08c 59bc
00000040: 8821 b7ba 743a 71bd 37b4 84bc c2dd b0bd
00000050: 0e04 6abd 6150 8e3d 256e fbbc c077 a7bc
00000060: e9cc 98bd 0fde b0bc 33a0 72bd ec5b 8abd
00000070: 2fe0 20bd 0ad9 eb3c 9709 9ebd 1526 6dbc
00000080: b0ce 3f3d e1d9 5f3b 25da 113d f2c8 38bd
00000090: 2053 ccbc 06f4 8abd 6176 09bc 3574 123d
000000a0: 171c 0abd 535d b0bd 376c c6bd 66c4 8c3b
000000b0: 0a24 fd3c 9daf 593d 8751 ee3a 324d c8bc
000000c0: 7387 02bd 6c55 50bd daab 9ebd 38dc b93b
000000d0: 0010 15bd 2dc8 0fbd ce45 dbbc ebfa 73bd
000000e0: 8ace 33bc 4b9d f43c 3a5a 05bd f244 febc
000000f0: 3ae8 fbbc 0b00 e03b c81d 0a3d 098f 233d
00000100: 1f05 43bd bc87 94bc f99b 163d 4638 a4bd
00000110: f6ce ecbc b3cc 083c 373e 3c3c 1e09 ed3c
00000120: 1545 40bc dc63 4e3c 8a87 53bd 757a a6bd
00000130: cf1a 7e3c 19b1 353c 4fe6 81bd a2dc 1b3d
00000140: 0d20 f53b 513a ac3b 5708 9abd af0a cebc
00000150: 9600 aa3d f6e0 fabc 3f96 c0bd a845 293d
00000160: bd14 45bd 80a1 c73c 81ca a3bd fdfb 60bd
00000170: d87f adbd 2ca1 2dbc 1269 07bd b465 9abd
00000180: d13e 79bb 2068 8ebd aeea c0bd e250 9abd
00000190: 807c 2ebd 590f 253d 2db7 04bd 42e4 b2bc
000001a0: 5fae 76bd d594 873c 4f97 88bc 1f9d 703d
000001b0: e99d 73bd 3db9 42bd 9ba2 15bd 5e6d 83bd
000001c0: 4e05 8dbc 403a 9c3d 7772 003c 11a7 adbd
000001d0: f9e4 86ba 7975 ae3d 8351 8f3d 2248 6d3d
000001e0: 5f22 973d 12cc 9a3d e0ee e2bc 9149 1bbd
000001f0: c3a6 90bd 8d4d 333c 4129 263d 8ff0 98bd

encoder.4.weight f4 [128, 128]
-0.067608535 -0.020086639 -0.08817695 -0.055557005 -0.014051032 0.06845617 0.044588637 -0.05807993
0.031618755 0.07968767 -0.03816508 -0.076916195 -0.011609444 0.10033425 0.02389585 0.048919138
0.07112521 0.044038694 -0.06127708 -0.040421933 -0.045240868 0.05457873 0.108387284 -0.015746241
0.026962467 0.035109 0.024423411 0.08135815 0.1196593 -0.06769507 -0.015178829 0.006784241
0.0010337642 -0.07956408 -0.068954095 -0.08477382 -0.018645542 0.45445666 0.33993378 -0.0380871
-0.04530858 0.0070701023 -0.052808583 0.06268906 -0.057266228 -0.0089831315 0.041564535 0.039417397
-0.018978694 -0.044414908 -0.016050363 0.047976393 -0.096581645 0.07719022 -0.060367342 0.0024402288
0.033846617 0.07480893 -0.048836187 0.07771444 0.020466462 -0.05208006 -0.112740055 0.054969873
0.0748857 0.09532467 -0.03895596 0.08193831 0.010177874 -0.01729399 0.09468248 -0.108002305
0.023949103 0.04685289 0.06786809 -0.08370821 0.042290423 -0.09023071 0.03320086 -0.06886365
0.094271064 -0.047474146 -0.08303812 -0.050953396 -0.041353792 0.012157878 -0.04279579 0.07755138
0.010996226 -0.069325015 0.05956949 -0.0015692536 -3.2049002e-06 0.03828822 -0.06156072 0.07786914
0.065624215 -0.0075473096 0.04515735 0.05908042 0.061177004 0.00073202484 0.0044748667 0.06289324
0.046449732 0.049109932 -0.050601367 0.099805474 -0.03224178 -0.060027048 -0.020307848 -0.026788326
-0.058252525 -0.07197176 0.0005088678 -0.08105452 -0.06383293 0.05332828 -0.042467732 0.10426687
0.29103452 0.020861672 -0.078037746 0.011230481 0.2137885 8.736841e-06 0.07873301 -0.07957248
0.01694943 -0.0018663119 0.053361427 0.014923492 0.046399318 0.034607086 -0.04295372 -0.042816266
-0.085410625 0.04748051 -0.046303846 0.08113893 -0.034017302 0.043188855 0.033029705 0.047902726
-0.0067172805 0.05006877 0.021936707 0.049177047 0.022306852 -0.054411806 0.041129522 -0.030877065
-0.090263166 0.016968088 -0.5028894 0.04893431 -0.08606162 0.026678838 -0.06509816 -0.026176324
0.0699659 0.037431616 0.06062194 0.019345477 0.016076686 -0.22715801 -0.15950379 -0.027278716
0.03194535 -0.021395415 -0.061268188 -0.05148477 -0.034964286 0.038921766 -0.0144290365 -0.033792857
-0.10239289 -0.06996829 -0.05924982 0.03947731 -0.04142172 0.029878985 -0.052137285 -0.0782922
0.037310425 -0.041714817 0.07742801 -0.06518447 0.03331568 0.07876546 -0.25086594 -0.064394526
-0.040897723 0.013547119 -0.040720433 -0.10556191 0.028617257 0.06878058 0.02496271 -0.36481702
-0.047104467 -0.036737077 -0.05455217 0.050478004 0.019437132 -0.19086932 0.050163575 -0.03002187
-0.052074276 -0.0367997 -0.006623704 0.028622624 -0.027561288 0.05832737 -0.0024944642 0.007103272
-0.054351892 -0.027612694 -0.058111884 -0.078076035 0.016529202 0.013805232 0.03359207 0.018653365
0.001634869 -0.0022597243 -0.09194329 0.06229601 -0.08353776 0.015863452 0.060847346 0.0362041
-0.017893203 -0.03137041 0.080160536 0.017236369 -0.0021081783 0.0030617367 -0.36199433 0.009763739
-0.04717779 0.0013204713 -0.026152225 0.07851942 0.0063043465 -0.0062031206 0.014686706 -0.13068867
-0.3325609 -0.009279668 -0.04775948 0.06637983 0.21103613 -0.062300146 -0.079243004 -0.07469179
00000000: 5876 8abd bc8c a4bc 1e96 b4bd be8f 63bd
00000010: 4d36 66bc c032 8c3d 93a2 363d 38e5 6dbd
00000020: ab82 013d 4a33 a33d fd52 1cbd 3d86 9dbd
00000030: 8a35 3ebc 0b7c cd3d 3bc1 c33c 6f5f 483d
00000040: 18aa 913d eb61 343d adfd 7abd 7891 25bd
00000050: 7d4e 39bd f28d 5f3d 27fa dd3d 43fe 80bc
00000060: 64e0 dc3c 74ce 0f3d 9b13 c83c 1a9f a63d
00000070: ef0f f53d b6a3 8abd a0b0 78bc 574e de3b
00000080: 5f7f 873a 7ef2 a2bd ce37 8dbd e69d adbd
00000090: 89be 98bc 8bae e83e cd0b ae3e 3801 1cbd
000000a0: 7d95 39bd 51ac e73b d04d 58bd 1f63 803d
000000b0: fe8f 6abd fc2d 13bc 933f 2a3d 2374 213d
000000c0: 3579 9bbc 68ec 35bd 0d7c 83bc e582 443d
000000d0: 99cc c5bd e815 9e3d bf43 77bd 3fec 1f3b
000000e0: c0a2 0a3d 6d35 993d 7408 48bd c028 9f3d
000000f0: 48a9 a73c e751 55bd 42e4 e6bd 1728 613d
00000100: ad5d 993d 9539 c33d 4990 1fbd 46cf a73d
00000110: 19c1 263c 20ac 8dbc e3e8 c13d 5030 ddbd
00000120: e930 c43c d1e8 3f3d 6dfe 8a3d 366f abbd
00000130: b938 2d3d e1ca b8bd a0fd 073d 6308 8dbd
00000140: 3011 c13d 4074 42bd e40f aabd 82b4 50bd
00000150: 9862 29bd d631 473c a34a 2fbd 42d3 9e3d
00000160: 8429 343c 46fa 8dbd 23ff 733d 6aaf cdba
00000170: c413 57b6 1cd4 1c3d 1827 7cbd db79 9f3d
00000180: fd65 863d 6c4f f7bb eaf6 383d 4ffe 713d
00000190: bd94 7a3d 5be5 3f3a e7a1 923b 2cce 803d
000001a0: 1342 3e3d 7f27 493d 6143 4fbd d066 cc3d
000001b0: f50f 04bd ecde 75bd a55c a6bc 3173 dbbc
000001c0: 339a 6ebd ee65 93bd 8a65 053a eaff a5bd
000001d0: d7ba 82bd c16e 5a3d a5f2 2dbd de89 d53d
000001e0: 7a02 953e 19e6 aa3c 41d2 9fbd 0d00 383c
000001f0: 5feb 5a3e 7294 1237 c63e a13d e5f6 a2bd
00000200: 88d9 8a3c 099f f4ba 8391 5a3d aa81 743c
00000210: 360d 3e3d 29c0 0d3d 3df0 2fbd 1c60 2fbd
00000220: c4eb aebd ec7a 423d 1aa9 3dbd 2b2c a63d
00000230: ba55 0bbd cce6 303d 284a 073d a635 443d
00000240: a21c dcbb e914 4d3d 9cb4 b33c df6d 493d
00000250: dcbc b63c eade 5ebd 6e77 283d e6f1 fcbc
00000260: e5db b8bd a900 8b3c 5cbd 00bf 586f 483d
00000270: 1341 b0bd 948d da3c 2f52 85bd bb6f d6bc
00000280: 484a 8f3d e551 193d b64e 783d 687a 9e3c
00000290: 41b3 833c 1c9c 68be f654 23be 9d77 dfbc
000002a0: 21d9 023d 7045 afbc 5af4 7abd b2e1 52bd
000002b0: b636 0fbd 6e6c 1f3d c467 6cbc 616a 0abd
000002c0: 5db3 d1bd 894b 8fbd f0af 72bd f6b2 213d
000002d0: d2a9 29bd c6c4 f43c e88d 55bd a957 a0bd
000002e0: d1d2 183d 28dd 2abd 9492 9e3d 6f7f 85bd
000002f0: 0676 083d c94f a13d 8071 80be 47e1 83bd
00000300: 5f84 27bd bcf4 5d3c 78ca 26bd d830 d8bd
00000310: bd6e ea3c d5dc 8c3d 997e cc3c 4cc9 babe
00000320: 9df0 40bd 9e79 16bd 1972 5fbd 06c2 4e3d
00000330: 9f3a 9f3c 3f73 43be 5278 4d3d 6df0 f5bc
00000340: d64b 55bd 48bb 16bd a80b d9bb fe79 ea3c
00000350: 36c8 e1bc aee8 6e3d 2a7a 23bb 90c2 e83b
00000360: 17a0 5ebd 0434 e2bc ba06 6ebd 54e6 9fbd
00000370: 4068 873c 572f 623c d797 093d f1ce 983c
00000380: 1a49 d63a e217 14bb c34c bcbd 1a2a 7f3d
00000390: d815 abbd 12f4 813c 113b 793d c04a 143d
000003a0: c494 92bc 427e 00bd 352b a43d 4933 8d3c
000003b0: 5d29 0abb 6ba7 483b 5257 b9be 17f8 1f3c
000003c0: 803d 41bd aa13 ad3a 313d d6bc cace a03d
000003d0: b194 ce3b 8c43 cbbb 82a0 703c 40d3 05be
000003e0: 6c45 aabe c009 18bc 729f 43bd 26f2 873d
000003f0: db19 583e 702e 7fbd 284a a2bd 02f8 98bd

encoder.4.bias f4 [128]
0.0009924322 0.05371914 0.012677081 0.0072925636 -0.088599846 0.034164157 -0.018769423 -0.003923164
-0.025099486 0.008472155 -0.0008426236 0.029383129 -0.018539209 0.0011099231 0.003697148 -0.06848594
-0.05396437 0.0062414207 0.0051141484 -0.05717469 0.0299379 -0.022161942 0.015087244 -0.011466079
-0.009978248 0.057550352 -0.048840914 0.013306696 -0.008267877 0.0015072804 -0.031910233 -0.0208747
-0.0035698893 0.004444969 -0.028995136 0.04701748 0.0070484616 0.0059858616 -0.00553471 -0.0046476563
0.05687417 -0.0037029446 -0.06584093 0.010845435 -0.07385834 -0.007126701 -0.015836004 0.04605023
0.03823828 0.043276798 0.054168575 0.016143983 0.0077562565 0.030710222 0.01192382 0.0028854392
0.08928426 -0.032688502 -0.027042765 -0.011166993 0.01967091 -0.074965104 -0.042166404 0.04239992
0.014580654 -0.0923851 -0.046364203 -0.008981573 0.042999964 0.034496468 -0.0098294 -0.025139442
-0.046424113 0.021796493 -0.0057414053 0.0027904282 0.037891645 -0.11237834 0.0118755 -0.0066944975
-0.033596095 -0.01410877 -0.0009878108 0.046464738 0.0048858677 0.0042133746 0.0029568186 -0.004397042
0.033727016 -0.0040950077 0.016735658 0.061922643 0.052442092 -0.02048176 -4.207943e-05 -0.042500596
0.0060765436 0.03804614 0.0097582145 0.07764743 -0.036262564 0.01127276 0.024172593 0.011073286
-0.0055001234 -0.005954979 0.006475474 0.032919858 0.028987488 -0.018302996 0.013839632 -0.003658317
0.031442206 -0.00851425 -0.061893515 -0.10306212 -0.02532268 0.007022365 0.032850925 -0.011237569
0.027747646 -0.018520448 -0.005580077 -0.027827945 0.0077710077 -0.050825514 0.008994256 -0.040996738
00000000: 8014 823a 9a08 5c3d 88b3 4f3c 75f6 ee3b
00000010: d673 b5bd b7ef 0b3d 55c2 99bc e38d 80bb
00000020: 709d cdbc cbce 0a3c 83e3 5cba e3b4 f03c
00000030: 8adf 97bc d77a 913a da4b 723b 5b42 8cbd
00000040: be09 5dbd d584 cc3b 9694 a73b 0230 6abd
00000050: 5440 f53c f68c b5bc 7d30 773c 39dc 3bbc
00000060: ce7b 23bc ebb9 6b3d 690d 48bd 5404 5a3c
00000070: fd75 07bc f08f c53a 4eb4 02bd 6b01 abbc
00000080: cef4 69bb 1aa7 913b 3587 edbc 6795 403d
00000090: c8f6 e63b 0c25 c43b 835c b5bb 5e4b 98bb
000000a0: e4f4 683d 1aad 72bb 9cd7 86bd 0db1 313c
000000b0: 0b43 97bd 1a87 e9bb 82ba 81bc 2a9f 3c3d
000000c0: be9f 1c3d 0343 313d dedf 5d3d 6340 843c
000000d0: 3228 fe3b 0194 fb3c 205c 433c a319 3d3b
000000e0: abda b63d 61e4 05bd ca88 ddbc c3f5 36bc
000000f0: e324 a13c 4e87 99bd aeb6 2cbd 8aab 2d3d
00000100: b2e3 6e3c 6634 bdbd 64e8 3dbd 7327 13bc
00000110: bb20 303d 2b4c 0d3d 7e0b 21bc 3bf1 cdbc
00000120: 3627 3ebd 8f8e b23c 6622 bcbb 9edf 363b
00000130: 4534 1b3d 9d26 e6bd 7591 423c 845d dbbb
00000140: 0f9c 09bd 7828 67bc 6e79 81ba cf51 3e3d
00000150: a119 a03b 5910 8a3b 2fc7 413b 1015 90bb
00000160: 5725 0a3d 6a2f 86bb 3819 893c 99a2 7d3d
00000170: 85cd 563d 5dc9 a7bc 727e 30b8 1b15 2ebd
00000180: be1d c73b 45d6 1b3d ebe0 1f3c 9e05 9f3d
00000190: 0e88 14bd 62b1 383c 9a05 c63c ba6c 353c
000001a0: 613a b4bb fc21 c3bb 3730 d43b f9d6 063d
000001b0: 2b77 ed3c 2af0 95bc a0bf 623c 60c0 6fbb
000001c0: 8bc9 003d 5a7f 0bbc 0e84 7dbd 3c12 d3bd
000001d0: 8271 cfbc de1b e63b b18e 063d c81d 38bc
000001e0: 084f e33c 32b8 97bc 14d9 b6bb 6ef7 e3bc
000001f0: f0a3 fe3b 6a2e 50bd a55c 133c 32ec 27bd

query.0.weight f4 [128, 130]
0.01655372 -0.009292852 0.02962443 0.028065158 0.06378308 0.030250533 0.0735997 -0.032473944
-0.062028844 -0.088542864 0.034279294 -0.031266 0.06278267 -0.007467258 -0.0014680909 -0.008648228
0.05197336 -0.042216416 0.03540026 0.010394347 0.014291779 -0.045319486 0.0039883056 -0.07642137
0.03340494 0.08031224 -0.03326005 -0.059340414 0.0040833363 -0.0059518158 -0.06395221 0.08117972
-0.065245435 0.032842565 -0.03423589 0.07994675 0.029280052 -0.06601697 0.06691856 -0.023482416
-0.007628735 0.024482116 -0.07653155 0.020203067 0.023235245 -0.06765121 -0.038174734 -0.08478575
-0.05636492 -0.015296272 0.0049917437 -0.0025648957 0.010222979 0.012568831 -0.08871816 -0.056591664
-0.013207283 -0.046778597 0.0117083145 -0.0090873055 0.05157627 -0.014457737 -0.02209933 0.08096982
-0.065594055 0.009552645 0.04504212 0.06644885 -0.02080303 0.07633593 -0.08037768 -0.037727404
0.08143341 -0.06628154 -0.038316865 0.012638271 -0.008109684 0.08778858 -0.03599 -0.0659788
-0.061444014 -0.05235174 -0.06365134 -0.016473057 -0.015821965 -0.0020647084 0.07870059 0.07435827
-0.01045973 0.039124366 -0.00083670975 0.039165247 0.06780578 -0.086090535 -0.044038754 -0.07933911
-0.022451462 0.048695717 0.0578591 0.07793858 -0.06083695 0.0113183735 0.015619362 -0.06024101
-0.06043291 -0.05377112 0.02391616 0.034452666 0.07591794 0.04111382 -0.03958586 0.0657385
0.00015900569 0.07194824 0.090705775 -0.012122153 -0.07437196 -0.0063235434 -0.0016296005 0.04669229
-0.005020262 -0.007023992 -0.07828123 0.071854934 0.016676864 -0.04470013 0.039710812 0.015002513
0.08269375 0.06737975 -0.013459067 1.0089201 0.005016133 0.03829899 0.043296266 0.43722317
-0.13021983 -0.13208002 -0.06613393 0.07240654 -0.08688509 0.08441667 -0.21598338 0.1116319
0.009092339 0.017075557 -0.7911368 0.0019188568 -0.386377 -0.2956501 0.16969673 -0.19210054
0.045290977 0.04915321 -0.0028700887 0.3616928 -0.29191542 0.041372504 -0.043053955 -0.034407977
-0.13718349 -0.018949024 0.08105182 0.0018476958 -0.13631116 0.013729924 0.10934053 0.11356755
-0.11779626 0.04427345 0.6624363 -0.17650123 -0.015527514 -0.23735046 0.0004063066 -0.063955665
0.0068621864 0.20288335 -0.02157469 0.2232089 0.2907988 -0.051154543 0.01828546 0.13222395
0.04800587 -0.04265444 0.0780225 -0.1719616 0.031145828 0.06093491 0.26026264 -0.56619966
-0.1373827 0.033089656 0.052520715 -0.03057774 -0.10098342 -0.08953078 0.18146159 0.15292135
0.0442372 -0.15053172 0.010299267 0.037200574 -0.09062997 -0.050341308 0.09627721 -0.09954318
0.047139123 0.064426556 -0.08073254 -0.05853797 0.016440991 0.20784259 -0.1351822 -0.0892675
0.30590308 -0.034884613 0.3792148 0.03708721 0.03769146 0.4377089 0.46798778 -0.16835174
-0.031949144 -0.27941638 0.08908983 0.0961135 -0.13520601 0.055034697 -0.032180075 0.092628084
0.06512923 0.017771365 0.041079234 -0.1697966 0.015842648 0.1542341 0.18147764 0.013214444
0.034498 -0.1927435 0.12934873 -0.016189633 -0.20692803 -0.12195913 -0.16438639 0.047715724
-0.031034157 0.019753648 0.1837163 0.08477457 -0.012072108 -0.03954214 -0.20148659 -0.3460303
00000000: ab9b 873c 0c41 18bc efae f23c e7e8 e53c
00000010: b4a0 823d f7cf f73c 71bb 963d 6603 05bd
00000020: f511 7ebd f655 b5bd 7268 0c3d c710 00bd
00000030: 3394 803d e6af f4bb f56c c0ba 4cb1 0dbc
00000040: 05e2 543d 1feb 2cbd ddff 103d 0d4d 2a3c
00000050: 1128 6a3c eda0 39bd 55b0 823b cf82 9cbd
00000060: 9ed3 083d be7a a43d b13b 08bd ef0e 73bd
00000070: 82cd 853b 7307 c3bb 60f9 82bd 8e41 a63d
00000080: 669f 85bd ed85 063d ef3a 0cbd 1fbb a33d
00000090: b8dc ef3c e833 87bd 990c 893d 325e c0bc
000000a0: 78fa f9bb b88e c83c 93bc 9cbd e780 a53c
000000b0: d757 be3c b88c 8abd 1c5d 1cbd 27a4 adbd
000000c0: e7de 66bd 379d 7abc c891 a33b cf17 28bb
000000d0: 487e 273c 80ed 4d3c deb1 b5bd a9cc 67bd
000000e0: 5c63 58bc ea9a 3fbd 3bd4 3f3c ece2 14bc
000000f0: a441 533d 25e0 6cbc a709 b5bc 81d3 a53d
00000100: 2d56 86bd b282 1c3c 167e 383d 5616 883d
00000110: 1e6b aabc 0356 9c3d 0e9d a4bd 0d88 1abd
00000120: 8fc6 a63d 9ebe 87bd 25f2 1cbd c010 4f3c
00000130: 7bde 04bc 80ca b33d 406a 13bd e51f 87bd
00000140: b8ac 7bbd c76e 56bd a25b 82bd 81f2 86bc
00000150: 119d 81bc 0f50 07bb c62d a13d 2649 983d
00000160: 4a5f 2bbc df40 203d a456 5bba bd6b 203d
00000170: c2dd 8a3d 3c50 b0bd fb61 34bd 8b7c a2bd
00000180: 21ec b7bc 2975 473d aafd 6c3d 439e 9f3d
00000190: 2a30 79bd b370 393c 5ae8 7f3c 47bf 76bd
000001a0: 8088 77bd 1b3f 5cbd d3eb c33c 3d1e 0d3d
000001b0: dd7a 9b3d f766 283d c824 22bd e8a1 863d
000001c0: c4ba 2639 9959 933d f3c3 b93d ff9b 46bc
000001d0: 5350 98bd ba35 cfbb 5298 d5ba 6a40 3f3d
000001e0: 0381 a4bb 8429 e6bb e951 a0bd ae28 933d
000001f0: eb9d 883c 7c17 37bd cea7 223d 1acd 753c
00000200: 575b a93d 65fe 893d 6b83 5cbc 4b24 813f
00000210: 605e a43b 67df 1c3d 6d57 313d b7db df3e
00000220: 5958 05be fc3f 07be 3a71 87bd e149 943d
00000230: cff0 b1bd a6e2 ac3d bf2a 5dbe 449f e43d
00000240: 09f8 143c 0ae2 8b3c f187 4abf 2682 fb3a
00000250: 35d3 c5be 735f 97be fbc4 2d3e 01b6 44be
00000260: 0883 393d e054 493d 1918 3cbb cc2f b93e
00000270: f075 95be 3776 293d 5859 30bd 61ef 0cbd
00000280: d479 0cbe fc3a 9bbc 7ffe a53d 622e f23a
00000290: 2795 0bbe 7af3 603c eeed df3d 1b96 e83d
000002a0: 2a3f f1bd 1458 353d 6d95 293f bdbc 34be
000002b0: 1d67 7ebc 000c 73be 8c05 d539 30fb 82bd
000002c0: 31dc e03b a7c0 4f3e 67bd b0bc e090 643e
000002d0: 95e3 943e 6d87 51bd 64cb 953c b765 073e
000002e0: cea1 443d 6cb6 2ebd 43ca 9f3d b416 30be
000002f0: 8925 ff3c e296 793d 2541 853e 76f2 10bf
00000300: 0dae 0cbe 0589 073d f61f 573d 2b7e fabc
00000310: 65d0 cebd ea5b b7bd 11d1 393e 6a97 1c3e
00000320: 1132 353d fd24 1abe 42be 283c a15f 183d
00000330: 359c b9bd b032 4ebd fc2c c53d 4bdd cbbd
00000340: f414 413d 12f2 833d 1a57 a5bd 83c5 6fbd
00000350: 42af 863c b0d4 543e 346d 0abe e1d1 b6bd
00000360: 549f 9c3e 2be3 0ebd 7128 c23e c2e8 173d
00000370: 5c62 1a3d 621b e03e 189c ef3e 6664 2cbe
00000380: 1bdd 02bd aa0f 8fbe bb74 b63d 28d7 c43d
00000390: 7273 0abe 106c 613d 41cf 03bd cbb3 bd3d
000003a0: 7962 853d 4195 913c b342 283d 29df 2dbe
000003b0: 71c8 813c 8bef 1d3e 46d5 393e 6581 583c
000003c0: c64d 0d3d 8d5e 45be fe73 043e 1fa0 84bc
000003d0: f1e4 53be b5c5 f9bd e854 28be 9071 433d
000003e0: 583b febc 67d2 a13c 2020 3c3e 4a9e ad3d
000003f0: 17ca 45bc f0f6 21bd 8052 4ebe e22a b1be

query.0.bias f4 [128]
-0.08762602 -0.029186428 0.0061443364 0.019254807 0.032420535 -0.07662729 0.0046916143 0.1491179
-0.09176838 0.09475406 0.005023938 0.14356634 0.105863914 -0.08560342 -0.07091548 -0.055417273
0.0706042 0.038998064 -0.014705783 -0.08910301 0.12827119 -0.05085011 -0.043524213 0.021430599
-0.025136909 -0.086125426 -0.0064022997 0.0044921986 0.09757443 0.03131441 0.06286677 -0.008150925
0.025708592 0.14332505 0.026880542 -0.06869279 0.12456812 -0.02764977 -0.05584829 -0.0506382
0.14065513 -0.084266044 -0.03899452 0.020882443 -0.07431777 0.037895605 0.08796293 0.054301098
-0.077894114 -0.018058944 -0.06251465 -0.023573766 0.13095768 0.0125387125 0.11755011 -0.03954592
0.032969397 0.09627297 0.11699372 -0.009312367 -0.051245797 0.05481738 0.11914033 0.029459279
-0.0025362927 -0.06460727 0.011574963 -0.005117609 -0.080326095 0.12692994 0.030280545 -0.0024579316
0.0043923045 0.15394486 0.032103393 0.12610264 0.047081493 -0.0043534436 0.013643844 -0.052662734
-0.046685807 -0.06337519 0.025446279 -0.05886988 -0.062306207 0.099153526 -0.05757069 0.032428946
-0.042456146 0.041960128 -0.044661745 -0.046941027 0.1394126 0.12503868 0.012837451 -0.034692734
-0.045644972 0.021944541 -0.045242645 0.00986747 -0.035239693 -0.040360514 -0.032798354 -0.1743995
0.07597571 0.052794456 -0.0029498043 0.005568892 -0.005380662 -0.06741416 0.13264136 -0.066103734
0.017310536 -0.032631554 -0.009826441 -0.064792395 0.05391462 -0.026265725 0.15089947 0.11937662
0.11297203 0.060556658 0.08686744 -0.029093597 0.13156515 -0.06316213 -0.02586845 -0.039571505
00000000: 4575 b3bd 6018 efbc 6e56 c93b 42bc 9d3c
00000010: 65cb 043d c5ee 9cbd 1dbc 993b 5db2 183e
00000020: 0ff1 bbbd 6b0e c23d d99f a43b 0e03 133e
00000030: 2ecf d83d d950 afbd 233c 91bd 39fd 62bd
00000040: ef98 903d 6fbc 1f3d 86f0 70bc a47b b6bd
00000050: 8659 033e 3448 50bd 7246 32bd 398f af3c
00000060: ebeb cdbc 8762 b0bd 62ca d1bb 4b33 933b
00000070: 1ad5 c73d 8a43 003d 4bc0 803d 758b 05bc
00000080: d39a d23c cdc3 123e 9534 dc3c ceae 8cbd
00000090: 921d ff3d c581 e2bc 2dc1 64bd 006a 4fbd
000000a0: e607 103e ad93 acbd b8b8 1fbd a811 ab3c
000000b0: ea33 98bd 6c38 1b3d e925 b43d d46a 5e3d
000000c0: f386 9fbd 5af0 93bc ae07 80bd c51d c1bc
000000d0: c519 063e 2c6f 4d3c 1dbe f03d e7fa 21bd
000000e0: eb0a 073d c32a c53d 679a ef3d e692 18bc
000000f0: 1de7 51bd 3088 603d d8ff f33d 9654 f13c
00000100: ee37 26bb d150 84bd eaa4 3d3c 9eb1 a7bb
00000110: 0282 a4bd ecf9 013e e80e f83c 4015 21bb
00000120: 52ed 8f3b b9a3 1d3e d97e 033d 0d21 013e
00000130: 86d8 403d 55a7 8ebb 6e8a 5f3c e1b4 57bd
00000140: 9e39 3fbd daca 81bd b774 d03c 8b21 71bd
00000150: cb34 7fbd 0111 cb3d 3ecf 6bbd 37d4 043d
00000160: 7fe6 2dbd 62de 2b3d 3cef 36bd 3c45 40bd
00000170: 2dc2 0e3e 240a 003e 2c54 523c f819 0ebd
00000180: 39f6 3abd 0ac5 b33c 5a50 39bd 2bab 213c
00000190: 7f57 10bd 1151 25bd 9157 06bd c895 32be
000001a0: 2799 9b3d 003f 583d 8151 41bb 417b b63b
000001b0: 4450 b0bb 6f10 8abd 23d3 073e 6561 87bd
000001c0: d3ce 8d3c aaa8 05bd 15ff 20bc e0b1 84bd
000001d0: 94d5 5c3d 382b d7bc 6485 1a3e bb7b f43d
000001e0: e15d e73d 420a 783d 8ee7 b13d b255 eebc
000001f0: 04b9 063e 265b 81bd 12ea d3bc bb15 22bd

query.2.weight f4 [128, 128]
0.016791 -0.08358472 0.064706475 -0.08276555 0.022337073 0.0002385933 -0.021140723 0.066943124
0.029306274 -0.09118697 -0.036750223 0.023146734 -0.051709842 -0.061270233 -0.068032764 -0.07513859
-0.02165221 0.004394392 0.03371022 -0.027385851 0.009882139 0.08661718 0.070297025 -0.07567874
0.003132575 0.067448735 -0.07676036 0.067857586 -0.021481726 0.05172944 -0.10132509 0.045304257
-0.040045932 -0.0067539774 0.020767976 -0.013988043 0.055350278 -0.032334503 -0.05743428 -0.057491284
0.06607328 0.066721 -0.039142348 0.07672892 0.04742889 0.040199094 0.023120651 0.008515807
-0.0014044383 0.076128736 -0.009263898 -0.062382687 -0.046667345 0.022386804 0.018776933 0.061421845
0.035435103 0.022637308 0.03856087 -0.06291282 0.066000834 0.048295014 0.016418772 0.050425343
-0.0665459 -0.09120183 0.031163648 0.031465434 0.05526554 0.0020714314 -0.029414738 0.007874991
-0.03652157 -0.051663984 -0.0636196 -0.062394075 -0.010760912 0.07220406 0.049637437 -0.08661848
0.011529586 -0.07690096 -0.034995046 0.042304836 0.031752836 -0.05938141 0.06823035 -0.04156639
0.052326303 0.03688547 0.077747606 -0.0318441 0.00986242 0.058336865 0.00734616 -0.028037574
-0.0024661385 -0.09800485 -0.066090465 -0.001641567 0.03233759 0.078846805 0.08763271 -0.08444077
0.014479724 -0.08267315 0.030885695 0.057029985 -0.0758536 0.046668034 0.010631246 -0.084442034
-0.051810205 -0.05377976 -0.034826692 -0.06740787 0.07634806 0.08776896 -0.039422017 -0.09697562
-0.02970634 -0.0023361545 0.04360228 0.057889685 -0.10162007 0.03599228 -0.05280947 -0.038280416
-0.036184367 -0.003520529 -0.05922696 0.0065963087 0.083166756 0.046168152 0.061964348 0.16154487
0.023481214 -0.029021181 0.047002636 0.019366898 0.010559763 -0.08487991 -0.10924504 0.013514834
0.030798243 -0.002512576 0.06420419 -0.02609302 0.068330236 -0.07633658 2.4773039e-05 -0.020296734
-0.037174415 -0.019319639 0.059194323 -0.033443872 0.0530379 0.059029996 -0.040901497 0.06458109
0.061544236 0.14272782 -0.019126361 0.038904957 0.08569403 -0.06549631 0.01455142 0.049790923
0.047173142 -0.093949676 -0.027901098 0.00613681 0.070247225 0.09144266 0.061036266 0.027753146
0.06256877 -0.086635016 0.08666656 -0.04457425 0.06629768 0.044149715 0.13683926 -0.028372934
-0.02947848 0.0058648074 0.031314105 0.016993398 0.07070863 0.07931067 0.111869395 -0.033782993
-0.0047265086 0.025227806 0.042118505 0.05396717 -0.04675056 -0.010888413 -0.062522866 0.021520937
0.020436708 0.107160665 0.012195285 0.14840081 -0.0029046778 0.059752617 0.015141348 -0.031050328
-0.03122837 -0.038408983 0.08773351 0.010509928 -0.031212775 0.021659318 -0.023731751 0.11189224
0.029844508 0.0071390895 0.01157049 -0.06985659 0.076137885 0.11632698 0.07987834 0.026864167
0.019656852 -0.0027736218 0.022653643 -0.07774203 0.0010639398 0.07167186 -0.009424819 -0.005402961
0.06378191 -0.028854504 -0.045033067 0.032079697 0.060946565 0.061597154 0.17498648 0.01477023
-0.046643354 -0.07308237 0.010883899 0.054200884 0.1185545 0.02770361 0.050508574 0.06839545
0.090311 0.084142454 0.16120756 -0.030315068 0.12809399 0.07952713 -0.01237193 0.042609863
00000000: 478d 893c 772e abbd d484 843d fc80 a9bd
00000010: 3dfc b63c e72e 7a39 4f2f adbc 7a19 893d
00000020: b613 f03c 3cc0 babd 6787 16bd 389e bd3c
00000030: b3cd 53bd 7ff6 7abd c354 8bbd 43e2 99bd
00000040: fa5f b1bc d5fe 8f3b ba13 0a3d 4b58 e0bc
00000050: b2e8 213c 5964 b13d e3f7 8f3d 75fd 9abd
00000060: e34b 4d3b 9022 8a3d 8934 9dbd ebf8 8a3d
00000070: 72fa afbc 40e2 533d 8783 cfbd f590 393d
00000080: 3407 24bd 7850 ddbb 9a21 aa3c 1b2e 65bc
00000090: f9b6 623d 2f71 04bd 3540 6bbd fb7b 6bbd
000000a0: 6e51 873d 05a5 883d ba53 20bd 0d24 9d3d
000000b0: cc44 423d cea7 243d 8567 bd3c e285 0b3c
000000c0: 2115 b8ba 62e9 9b3d 9bc7 17bc fd84 7fbd
000000d0: 4226 3fbd 8864 b73c 15d2 993c 7995 7b3d
000000e0: 6624 113d e071 b93c 01f2 1d3d 70d8 80bd
000000f0: 722b 873d fed0 453d a980 863c ce8a 4e3d
00000100: 3849 88bd 06c8 babd e84a ff3c e6e1 003d
00000110: 1e5e 623d dac0 073b 2df7 f0bc 1b06 013c
00000120: a497 15bd 9d9d 53bd fe4a 82bd ee90 7fbd
00000130: 894e 30bc b9df 933d a050 4b3d 0865 b1bd
00000140: 97e6 3c3c 407e 9dbd f756 0fbd d647 2d3d
00000150: 430f 023d ec39 73bd 5bbc 8b3d 8541 2abd
00000160: 1b54 563d 3815 173d 233a 9f3d f66e 02bd
00000170: fd95 213c a3f2 6e3d 0eb8 f03b 0eaf e5bc
00000180: f09e 21bb c4b6 c8bd 705a 87bd d929 d7ba
00000190: 6c74 043d 6f7a a13d c778 b33d 48ef acbd
000001a0: 5d3c 6d3c 8a50 a9bd ff03 fd3c 4698 693d
000001b0: 2259 9bbd fb26 3f3d ad2e 2e3c f2ef acbd
000001c0: f036 54bd 2a48 5cbd 6fa6 0ebd 230d 8abd
000001d0: 5f5c 9c3d 36c0 b33d fb78 21bd 279b c6bd
000001e0: b65a f3bc 2b1a 19bb 4e98 323d bc1d 6d3d
000001f0: 2f1e d0bd a46c 133d be4e 58bd edcb 1cbd
00000200: 0f36 14bd adb8 66bb f897 72bd d925 d83b
00000210: 5553 aa3d d11a 3d3d 54ce 7d3d 056c 253e
00000220: ad5b c03c d4bd edbc d685 403d 54a7 9e3c
00000230: db02 2d3c 85d5 adbd ddbb dfbd 536d 5d3c
00000240: 994c fc3c 08aa 24bb 7d7d 833d 07c1 d5bc
00000250: b9f0 8b3d 5a56 9cbd b2cf cf37 5645 a6bc
00000260: 3344 18bd 3844 9ebc bf75 723d 71fc 08bd
00000270: 453e 593d 70c9 713d 5488 27bd 1743 843d
00000280: cf15 7c3d 3e27 123e e3ae 9cbc ce5a 1f3d
00000290: 5a80 af3d ee22 86bd 1469 6e3c 91f1 4b3d
000002a0: a038 413d b068 c0bd d890 e4bc 4b17 c93b
000002b0: c7dd 8f3d 4a46 bb3d 2a01 7a3d 915a e33c
000002c0: 0e24 803d b36d b1bd 3d7e b13d 7d93 36bd
000002d0: 14c7 873d 55d6 343d 971f 0c3e 5b6e e8bc
000002e0: da7c f1bc 922d c03b 3843 003d bd35 8b3c
000002f0: b0cf 903d a26d a23d c81b e53d 0960 0abd
00000300: d4e0 9abb 8baa ce3c 7484 2c3d ae0c 5d3d
00000310: 847d 3fbd 5065 32bc fd0b 80bd ad4c b03c
00000320: e26a a73c 0d77 db3d bcce 473c 62f6 173e
00000330: 685c 3ebb 29bf 743d 6b13 783c 425d febc
00000340: a3d2 ffbc bd52 1dbd a0ad b33d d531 2c3c
00000350: efb1 ffbc e26e b13c 1769 c2bc c227 e53d
00000360: 787c f43c 06ef e93b 2792 3d3c f910 8fbd
00000370: 2eee 9b3d d73c ee3d 4197 a33d 3e12 dc3c
00000380: 6807 a13c a7c5 35bb 2294 b93c 3737 9fbd
00000390: e573 8b3a b2c8 923d 8e6a 1abc 520b b1bb
000003a0: 17a0 823d 4860 ecbc 9874 38bd 0066 033d
000003b0: 1ba3 793d 4c4d 7c3d a82f 333e d6fe 713c
000003c0: 1a0d 3fbd 36ac 95bd 6252 323c bf01 5e3d
000003d0: b4cc f23d aef2 e23c 14e2 4e3d ea12 8c3d
000003e0: f9f4 b83d e152 ac3d 9813 253e 4e57 f8bc
000003f0: 122b 033e 1fdf a23d a3b3 4abc ae87 2e3d

query.2.bias f4 [128]
-0.043073747 0.1575651 -0.05993805 -0.084194414 0.07888702 -0.015448492 0.045125704 -0.023448821
0.07350003 0.031464834 0.06589884 -0.08486412 -0.007942138 0.07347747 -0.002042883 0.020969335
-0.0119089475 -0.07532624 -0.028940657 -0.115460455 0.089116424 -0.12907721 0.21962114 0.16544034
0.025117 0.028858159 0.029943168 0.21558903 -0.05918432 0.024134664 -0.012519908 0.19765174
0.029139334 0.013123764 0.025835272 0.09948502 -0.021678708 0.023512345 -0.07675171 0.103618816
-0.04145664 -0.102030255 0.017145691 -0.030256122 -0.01682891 0.13884683 -0.052531242 0.017007658
0.05289228 -0.024864022 -0.08657554 -0.041267354 0.04838847 -0.046677925 0.0151288705 0.11768006
0.053412 -0.001643576 0.023884544 0.0015635558 0.020513691 0.039241668 0.12387323 0.028311767
0.095656626 0.23190276 0.17038788 0.13231 0.0068609985 0.018793454 0.0064619808 0.103557765
-0.075755484 0.17976207 -0.045809425 -0.028564112 0.046304632 0.012876679 -0.052371446 -0.034996353
-0.06646221 -0.06712446 -0.0380418 0.09823138 0.17853291 0.15461925 0.0064921402 0.15482663
0.19331278 -0.055728797 -0.08710045 0.20041853 -0.06845961 0.021187449 0.008789108 0.14753167
-0.07325806 -0.034766905 -0.028461013 0.08057158 -0.012983341 -0.031180507 -0.054316845 -0.1345807
-0.045935556 0.017342871 0.18279871 0.19278105 0.006327517 -0.09418175 0.15861091 0.003011308
0.18293324 -0.068447046 0.10539968 -0.028021155 0.028091652 -0.017012978 0.1610669 -0.0032658724
-0.074078806 -0.010445558 0.05046173 0.1095203 0.09211702 -0.087266274 -0.045543958 0.010032702
00000000: 196e 30bd bf58 213e 9a81 75bd 1f6e acbd
00000010: 858f a13d ac1b 7dbc bbd5 383d be17 c0bc
00000020: 2f87 963d 45e1 003d f9f5 863d 3dcd adbd
00000030: be1f 02bc 5b7b 963d e4e1 05bb e2c7 ab3c
00000040: bf1d 43bc a544 9abd f514 edbc 8876 ecbd
00000050: ac82 b63d d12c 04be 5de4 603e 3169 293e
00000060: 2bc2 cd3c f267 ec3c 604b f53c 5fc3 5c3e
00000070: 426b 72bd 0fb6 c53c 4d20 4dbc 3865 4a3e
00000080: 9db5 ee3c 0e05 573c 7ea4 d33c cdbe cb3d
00000090: 8c97 b1bc f69c c03c 0030 9dbd 1a36 d43d
000000a0: 70ce 29bd 3df5 d0bd 1f75 8c3c b0db f7bc
000000b0: c8dc 89bc dd2d 0e3e 002b 57bd a553 8b3c
000000c0: 93a5 583d a2af cbbc 844e b1bd f507 29bd
000000d0: fd32 463d 5a31 3fbd 15df 773c 3e02 f13d
000000e0: 8bc6 5a3d 426d d7ba 85a9 c33c 3af0 cc3a
000000f0: 540c a83c dfbb 203d 3fb1 fd3d 14ee e73c
00000100: 9fe7 c33d eb77 6d3e 297a 2e3e 467c 073e
00000110: 3ad2 e03b bbf4 993c 06bf d33b 1816 d43d
00000120: b125 9bbd 8c13 383e aaa2 3bbd 49ff e9bc
00000130: eda9 3d3d b5f8 523c 7183 56bd 5658 0fbd
00000140: 571d 88bd 8d78 89bd b8d1 1bbd 892d c93d
00000150: 55d1 363e 8254 1e3e 05bc d43b df8a 1e3e
00000160: c9f3 453e e143 64bd b961 b2bd 843a 4d3e
00000170: 8d34 8cbd 4d91 ad3c 3100 103c 8b12 173e
00000180: 5208 96bd be67 0ebd 1227 e9bc b602 a53d
00000190: 14b8 54bc 436e ffbc 577b 5ebd 86cf 09be
000001a0: ec26 3cbd a312 8e3c 962f 3b3e 6568 453e
000001b0: 0f57 cf3b 5de2 c0bd e66a 223e 5d59 453b
000001c0: da52 3b3e f72d 8cbd cadb d73d 9f8c e5bc
000001d0: 7720 e63c cd5e 8bbc b9ee 243e 3f08 56bb
000001e0: a1b6 97bd d823 2bbc f6b0 4e3d 2e4c e03d
000001f0: d9a7 bc3d a9b8 b2bd 4d8c 3abd 3460 243c
